models/pytorch_convolutional_neural_network.pth (torch, 35007 bytes, 6 tensors)

layer_stack.1.weight f4 [10, 784]
-0.016454881 -0.003908627 -0.014392863 0.01972899 -0.030881274 -0.022270612 -0.029083768 -0.060122248
-0.0612611 -0.16620699 -0.18076707 -0.09060074 0.19869162 0.15032552 0.11971416 0.1747463
0.055959415 -0.15315948 -0.14586641 -0.09460386 -0.038372487 -0.033569627 0.0060482128 0.024507076
0.016483173 -0.01978488 0.020678893 0.0063919523 0.01811785 -0.02165862 -0.0362234 -0.023209631
-0.03793868 0.009640771 -0.046735484 -0.13805649 -0.24699 -0.32188326 -0.11766718 0.037410107
0.053925823 0.048607428 0.111044444 0.075988516 0.06531164 -0.066423334 -0.252012 -0.3085625
-0.20899092 -0.10862456 0.0054230746 -0.008094048 0.015240667 -0.045905247 -0.041974224 -0.03271059
-0.024145395 0.014759457 0.012516272 0.023899755 -0.03309245 -0.07263652 -0.15972774 -0.2853783
-0.17175223 -0.08772308 0.048505787 0.028565945 0.05487116 0.12834856 0.17564614 0.15873542
0.09083348 0.013177698 -0.07868478 -0.16003439 -0.22129858 -0.22480774 -0.081682146 -0.061854303
-0.046764616 -0.0038005486 -0.010794516 -0.02876643 0.000751614 -0.024722345 -0.032488912 -0.026295956
-0.058507487 -0.11797307 -0.11354545 -0.11883434 -0.074918866 -0.05114718 0.0026255425 0.04012997
0.063082956 0.09397944 0.14662397 0.09812093 0.032012604 -0.023701806 -0.029418876 -0.07220199
-0.12991415 -0.16246663 -0.1293223 -0.074160546 -0.000978695 -0.023305066 0.023482768 0.010850418
-0.030786999 0.0235578 -0.013392791 -0.022532973 -0.075454414 -0.08127844 -0.07493967 -0.12892902
-0.037498187 -0.02422219 0.0588667 0.03269719 0.06829381 0.102544114 0.15808778 0.08918484
0.08073408 -0.031833358 -0.033553973 -0.077220105 -0.10164277 -0.112985246 0.000995107 -0.082736954
-0.002077704 -0.001620138 0.0062476653 -0.02017834 0.031821214 0.0045344643 -0.0036342521 -0.05023339
-0.033399545 -0.015640082 -0.10512284 -0.05279075 -0.028729774 0.00421646 0.014885801 0.038273443
0.08187106 0.1268878 0.14379969 0.05058624 0.02514964 0.048138946 0.016541047 -0.051723514
-0.049623307 -0.039063316 0.04261573 -0.017023398 0.010760583 0.015268335 -0.0006218498 -0.0047686403
-0.010693851 -0.0055245757 -0.022274967 -0.03817703 -0.009059116 0.021106595 -0.051091537 -0.1071121
-0.043697942 0.010732566 0.03322693 0.040049642 0.0040543783 0.063496895 0.14521407 0.040328335
-0.01109129 -0.049583104 -0.059911113 -0.086542085 -0.06900071 0.0036814832 0.07472386 0.06057472
-0.03978688 -0.021345442 -0.022245599 0.033475697 0.0020740672 -0.021405986 0.002975614 -0.043068457
-0.025834465 0.029301757 -0.060642246 -0.14742152 -0.11368841 0.016575893 0.037415296 0.055623345
0.00062004256 0.030890204 0.10811234 0.079894245 -0.048213497 -0.07481202 -0.12550041 -0.16627446
-0.15220521 -0.06297282 -0.026241591 0.0008870911 -0.011459752 -0.011434811 0.002798661 -0.024970362
-0.0087767625 -0.042644285 -0.04970493 -0.024333559 0.00975742 0.042256873 -0.05403357 -0.15697864
-0.10113729 -0.054614965 -0.02790323 -0.004529893 0.021613482 0.08005133 0.20160179 0.097630665
-0.10455181 -0.31250697 -0.22236407 -0.22647007 -0.17507726 -0.06308333 -0.025836805 0.026533235
0.0033380804 -0.008468057 0.014278772 -0.034559857 0.015775887 0.0028085543 0.0033818886 -0.05657566
00000000: 63cc 86bc f113 80bb 0bd0 6bbc b19e a13c
00000010: bafa fcbc dc70 b6bc 1541 eebc bf42 76bd
00000020: ebec 7abd 2a32 2abe 011b 39be e18c b9bd
00000030: d175 4b3e efee 193e b32c f53d b2f0 323e
00000040: b335 653d d7d5 1cbe 015e 15be abbf c1bd
00000050: 782c 1dbd 4e80 09bd 1630 c63b 10c3 c83c
00000060: b807 873c e713 a2bc c866 a93c 9573 d13b
00000070: e36b 943c 6b6d b1bc fd5e 14bd 2022 bebc
00000080: 9765 1bbd 53f4 1d3c b56d 3fbd ae5e 0dbe
00000090: f2ea 7cbe e2cd a4be 7efb f0bd 573b 193d
000000a0: 53e1 5c3d 9518 473d 456b e33d de9f 9b3d
000000b0: 1cc2 853d f508 88bd b807 81be e7fb 9dbe
000000c0: b701 56be 8e76 debd 0cb4 b13b e69c 04bc
000000d0: feb3 793c 2407 3cbd 2aed 2bbd 8afb 05bd
000000e0: 90cc c5bc a6d1 713c 0d11 4d3c 6bc9 c33c
000000f0: f38b 07bd 75c2 94bd ab8f 23be 1b1d 92be
00000100: d1df 2fbe 28a8 b3bd 01ae 463d 2103 ea3c
00000110: 95c0 603d ce6d 033e 95dc 333e 8a8b 223e
00000120: e706 ba3d 45e7 573c 7c25 a1bd 0ee0 23be
00000130: 189c 62be 0034 66be f848 a7bd f05a 7dbd
00000140: 418c 3fbd a012 79bb 7bdb 30bc 94a7 ebbc
00000150: f607 453a 8486 cabc 1813 05bd 9e6a d7bc
00000160: 8ca5 6fbd dd9b f1bd 848a e8bd 6b5f f3bd
00000170: 106f 99bd b57f 51bd 4b11 2c3b 535f 243d
00000180: a331 813d 4b78 c03d 9824 163e a0f3 c83d
00000190: a61f 033d 4a2a c2bc dbff f0bc a3de 93bd
000001a0: 3708 05be a75d 26be 116d 04be 7ce1 97bd
000001b0: 8e47 80ba 44ea bebc ef5e c03c f4c5 313c
000001c0: 0435 fcbc 4afc c03c 706d 5bbc 1297 b8bc
000001d0: d887 9abd 5075 a6bd f879 99bd f805 04be
000001e0: b397 19bd 9d6d c6bc 351e 713d 7ded 053d
000001f0: a0dd 8b3d a602 d23d c3e1 213e 8ba6 b63d
00000200: e957 a53d b263 02bd e46f 09bd 9325 9ebd
00000210: 162a d0bd cf64 e7bd 406e 823a fe71 a9bd
00000220: 172a 08bb cf5a d4ba 37b9 cc3b 0c4d a5bc
00000230: f656 023d d895 943b a22c 6ebb 87c1 4dbd
00000240: f6cd 08bd a11f 80bc a54a d7bd 1d3b 58bd
00000250: b45a ebbc 3b2a 8a3b 93e3 733c 9dc4 1c3d
00000260: 04ac a73d e0ee 013e 3a40 133e 8433 4f3d
00000270: 9e06 ce3c 582d 453d 1781 873c 09dc 53bd
00000280: cf41 4bbd db00 20bd d58d 2e3d a774 8bbc
00000290: 284d 303c 0a28 7a3c a203 23ba 4142 9cbb
000002a0: 4335 2fbc 8007 b5bb fe79 b6bc 845f 1cbd
000002b0: b06c 14bc bde7 ac3c 5c45 51bd 975d dbbd
000002c0: 9dfc 32bd a5d7 2f3c f618 083d 180b 243d
000002d0: 97da 843b a90a 823d ffb2 143e 532f 253d
000002e0: 3eb8 35bc a717 4bbd 5b65 75bd fa3c b1bd
000002f0: 3f50 8dbd 0a45 713b d308 993d 331d 783d
00000300: 91f7 22bd a3dc aebc 673c b6bc d01d 093d
00000310: 13ed 073b 9b5b afbc 8502 433b 8d68 30bd
00000320: cda2 d3bc 3d0a f03c 0164 78bd abf5 16be
00000330: 78d5 e8bd 2bca 873c c840 193d 4ed5 633d
00000340: 5a8a 223a 740d fd3c 016a dd3d 989f a33d
00000350: 847b 45bd 0b37 99bd 2e83 00be da43 2abe
00000360: afdb 1bbe e5f7 80bd 9bf8 d6bc ad8b 683a
00000370: afc1 3bbc 1359 3bbc bd69 373b a58e ccbc
00000380: 69cc 0fbc c6ab 2ebd 6697 4bbd 2c57 c7bc
00000390: 96dd 1f3c 8b15 2d3d 4e52 5dbd 02bf 20be
000003a0: 1121 cfbd f1b3 5fbd 5195 e4bc 7f6f 94bb
000003b0: c20e b13c f4f1 a33d b370 4e3e 96f2 c73d
000003c0: 421f d6bd ea00 a0be 68b3 63be c5e7 67be
000003d0: 7447 33be d531 81bd b5a7 d3bc 3a5c d93c
000003e0: b2c3 5a3b 9bbd 0abc 83f1 693c a38e 0dbd
000003f0: 6f3c 813c b90f 383b ada2 5d3b e1bb 67bd

layer_stack.1.bias f4 [10]
0.014800325 0.024097385 -0.039262768 0.947535 0.14382553 1.1551952 0.67935544 0.005938613
0.766642 -0.24706335
00000000: 107d 723c e167 c53c ffd1 20bd a791 723f
00000010: 0047 133e 70dd 933f 3dea 2d3f b298 c23b
00000020: a642 443f 2dfe 7cbe

layer_stack.3.weight f4 [10, 10]
0.3112702 0.09283958 0.69501346 0.5988541 -0.7186991 0.088043936 -0.17678398 0.25193208
0.057445616 0.19763993 0.12167827 -0.74928355 0.38414946 -0.24628566 0.5637279 0.49779516
-0.13824543 -0.709276 0.568095 -0.31318375 0.095095545 -0.08484286 -0.6043077 0.74467057
-0.56336164 0.34767124 0.365057 -0.08735439 0.8712541 -0.12438533 -0.68345493 0.0564146
-0.0109511325 0.4101225 0.30415672 0.773697 -0.25240293 0.4717312 -0.95394874 -0.093381874
-0.12058242 -0.29703414 -0.18789077 -0.23201418 -0.113051765 -0.13336469 0.27498683 0.15751897
-0.27160653 -0.010498157 0.9253898 0.45523733 0.0060959063 0.27355003 -0.5784078 0.002421545
0.25782678 0.054612823 0.046557248 -1.0133214 -0.287097 0.06972303 -0.21235736 -0.3239498
-0.2781555 0.24283966 0.24159767 -0.25493374 0.8308593 0.72176003 -0.8192951 -0.5956792
0.30188584 0.18913454 -0.10848794 -0.26612625 1.0172647 0.30704197 0.24430898 -0.23720104
0.18306768 0.7334777 0.17224653 -0.39793926 0.12072445 0.22421165 0.7708999 0.46873844
-0.21146943 -0.2597243 -0.21255742 0.5224809 -0.9511635 0.25558007 0.3255336 -0.40391445
0.7578506 -0.37685955 0.016787238 -0.13058867
00000000: cf5e 9f3e ad22 be3d 67ec 313f 814e 193f
00000010: aafc 37bf 6150 b43d dc06 35be 3efd 803e
00000020: 184c 6b3d 1f62 4a3e 7532 f93d 0cd1 3fbf
00000030: 3daf c43e 4f32 7cbe 7950 103f 02df fe3e
00000040: 3690 0dbe 1d93 35bf ad6e 113f 9f59 a0be
00000050: 74c1 c23d 18c2 adbd e9b3 1abf bba2 3e3f
00000060: 7838 10bf f701 b23e c0e8 ba3e dce6 b2bd
00000070: 820a 5f3f bcbd febd e7f6 2ebf ff12 673d
00000080: 616c 33bc 94fb d13e 6eba 9b3e 0211 463f
00000090: f53a 81be c086 f13e fc35 74bf ff3e bfbd
000000a0: eaf3 f6bd dc14 98be 7066 40be 2095 6dbe
000000b0: af87 e7bd c190 08be 13cb 8c3e a74c 213e
000000c0: 0310 8bbe 7600 2cbc 59e6 6c3f de14 e93e
000000d0: 2bc0 c73b c00e 8c3e 8912 14bf c9b2 1e3b
000000e0: df01 843e b2b1 5f3d d0b2 3e3d 84b4 81bf
000000f0: 61fe 92be f3ca 8e3d 3574 59be c0dc a5be
00000100: 666a 8ebe f6aa 783e 6165 773e ad86 82be
00000110: 32b3 543f 44c5 383f 53bd 51bf 6f7e 18bf
00000120: c890 9a3e 7cac 413e ed2e debd b341 88be
00000130: bb35 823f 9b34 9d3e 222c 7a3e d4e4 72be
00000140: 1876 3b3e 32c5 3b3f 6561 303e b2be cbbe
00000150: 613e f73d bd97 653e b259 453f 7cfe ef3e
00000160: 718b 58be 95fa 84be a7a8 59be 4fc1 053f
00000170: 737f 73bf 64db 823e 57ac a63e e0cd cebe
00000180: 7f02 423f bcf3 c0be 6485 893c 09b9 05be

layer_stack.3.bias f4 [10]
-0.103158556 0.23363166 0.89621747 0.4309197 -0.21355155 0.8818911 -0.16199988 -0.30913162
-0.012597595 0.19304422
00000000: cb44 d3bd 233d 6f3e 826e 653f 82a1 dc3e
00000010: 42ad 5abe 9dc3 613f 4ce3 25be 8046 9ebe
00000020: 2566 4ebc 62ad 453e

layer_stack.5.weight f4 [10, 10]
-0.33740523 0.76794624 -0.58907455 0.8760341 0.07619622 0.24419281 -0.00593915 0.26361138
-0.24645297 -0.2585084 -0.6142694 -0.62777275 -0.2734723 -0.27884755 -0.31462815 0.021610446
0.917335 -0.1367293 -0.3315781 -0.45005342 0.83502007 -0.13398454 0.1150298 0.67523485
0.05976806 -0.2884731 0.014792736 -0.7150631 -0.28755516 0.032514337 0.10237906 0.99546075
-0.047408182 -0.07106163 0.037276514 -0.3365438 0.17331974 -0.087857865 -0.66999537 -0.024673227
1.3691657 0.4052054 -0.24137641 -0.14632319 -0.014507069 -0.07370214 0.008292043 -0.4530082
-0.8058274 0.08041805 -0.80146027 -0.833956 0.8535335 -0.7091088 -0.15094592 0.8788325
-0.87232035 -0.250338 0.8288726 0.5618023 0.68008053 0.7986182 -0.3920501 0.66806686
-0.2265571 0.08901633 -0.65462303 -0.44127288 -0.39947778 -0.08356982 -0.9133926 -0.8547808
0.52989715 -0.71691936 -0.32626188 -0.32122397 -0.024143975 0.89573306 -0.011598941 1.0047586
0.29028255 0.21552433 -0.059046853 -0.05078035 0.2486195 -0.0038227958 -0.15487769 0.89438725
0.862163 -0.98137385 -1.0871408 -0.8039804 -0.4510163 -0.6951401 -0.1868659 -0.7567896
0.04354236 0.44770062 0.88433695 0.97097087
00000000: 61c0 acbe 2098 443f 97cd 16bf c543 603f
00000010: c40c 9c3d ae0d 7a3e 349d c2bb 12f8 863e
00000020: 2b5e 7cbe 375b 84be c240 1dbf b7b5 20bf
00000030: 9004 8cbe 1bc5 8ebe f116 a1be 6408 b13c
00000040: 77d6 6a3f c402 0cbe 9bc4 a9be 676d e6be
00000050: e0c3 553f 3e33 09be be94 eb3d 31dc 2c3f
00000060: 5acf 743d bfb2 93be 3b5d 723c 600e 37bf
00000070: 6e3a 93be c12d 053d 1dac d13d 84d6 7e3f
00000080: 152f 42bd c388 91bd 42af 183d 784f acbe
00000090: bb7a 313e d3ee b3bd d184 2bbf 821f cabc
000000a0: d240 af3f 1577 cf3e 612b 77be bfd5 15be
000000b0: 0faf 6dbc 26f1 96bd 59db 073c b1f0 e7be
000000c0: b44a 4ebf 38b2 a43d 802c 4dbf 247e 55bf
000000d0: 2c81 5a3f 2888 35bf 9191 1abe 2bfb 603f
000000e0: 6350 5fbf 4d2c 80be ff30 543f 47d2 0f3f
000000f0: c219 2e3f 3e72 4c3f caba c8be 6e06 2b3f
00000100: 96fe 67be 324e b63d 6095 27bf 85ee e1be
00000110: 5a88 ccbe a726 abbd 19d4 69bf ead2 5abf
00000120: 57a7 073f 0788 37bf cc0b a7be 7877 a4be
00000130: 96c9 c5bc c34e 653f 7c09 3ebc ee9b 803f
00000140: ea9f 943e 69b2 5c3e 1ddb 71bd 0eff 4fbd
00000150: 1c96 7e3e df87 7abb 4298 1ebe 90f6 643f
00000160: b7b6 5c3f 513b 7bbf 6e27 8bbf a9d1 4dbf
00000170: 9ceb e6be b4f4 31bf c659 3fbe f7bc 41bf
00000180: 7959 323d 0439 e53e e863 623f 8c91 783f

layer_stack.5.bias f4 [10]
0.35922143 0.43896362 -0.18670791 0.46784025 -0.4222948 0.62972426 0.6779932 -0.52314365
-0.7911172 -1.2980313
00000000: dfeb b73e d7bf e03e 5c30 3fbe c288 ef3e
00000010: 0637 d8be 9c35 213f f690 2d3f beec 05bf
00000020: a886 4abf e425 a6bf
